knet2_109D_tanh_[50_20_15_10_1]_0.0932/layer1_W.npy (npy, 4128 bytes, 1 tensors)

array f4 [50, 20]
0.3950649 0.12882394 0.033976745 0.42692766 0.49307156 -0.75972545 -0.17786776 0.14515068
-0.13223757 0.6087433 0.05203052 0.08486058 -0.61562014 -0.9818103 -0.21476385 -0.016851151
-0.5977426 -0.9800751 -0.24843399 -0.37276477 -0.06797777 -0.5365481 0.43466428 0.15566885
-0.95557696 -0.056696195 -0.15522715 -0.13590392 0.42905325 -0.3695726 0.3332303 -0.024851087
-1.0956607 -0.4682715 0.29094487 0.25763828 0.44002995 -1.1503382 0.810084 -1.427808
1.0405596 0.53656936 -0.28286523 -0.35212493 -0.06877707 0.30105925 0.039210778 0.12520505
-0.3115578 0.20970693 0.66842985 0.15474163 -0.31309438 0.67222583 -0.37793443 -0.53435135
0.74113 0.015004866 -0.28484935 0.100615434 0.7245437 0.06891751 0.35901812 -0.10407339
-0.24398613 -0.30492955 0.32872638 -0.18032311 0.70752865 -0.55667746 1.05631 -0.1983031
0.52559006 -0.6994951 0.1711536 -0.46478772 -0.18327886 -0.38690513 0.21695101 -0.22055465
-0.54152066 0.19622444 0.26178497 0.33986887 0.48985454 -0.78430206 0.25252676 -0.33899868
-0.33819965 -0.41297302 -0.31132668 0.33128378 0.93416774 -0.09341017 0.18622926 0.1313931
0.3882475 -0.31748465 -0.13610198 -0.21820168 0.1884786 -0.048078693 0.31378308 -0.18609524
0.011285707 -0.3614263 0.08927557 0.21583116 0.3545039 0.15703069 -1.0509132 -0.304452
-0.26830956 -0.370155 0.84939134 -0.5005046 0.12006437 0.26450387 -0.44249964 -0.4384763
0.48420948 -0.11305687 -0.08973417 0.63881433 0.33804467 -0.16254872 -0.08595204 -0.46683466
0.117450826 0.042819604 -0.21336772 0.4544205 0.18400316 -0.61251915 0.63055366 0.40440196
-0.39804232 -0.11716843 0.19334528 0.049858954 -0.18110564 -0.48850313 -0.08316577 -0.28865856
-0.93543774 0.016493458 -0.23282023 0.8059745 0.5564443 -0.38361025 0.5335388 -0.51203316
-0.2481963 0.42665115 0.6111656 0.6872482 0.39760658 -0.12796845 -0.17994656 0.7625318
0.22326876 -0.20775506 -0.22122793 0.65816796 0.00026678655 -0.06714925 0.39648455 0.3785544
-1.0130501 0.24984334 -0.2358923 -0.07232935 0.84639347 0.14798643 0.10345771 -0.027372098
0.12406184 -0.21700324 -0.026054315 -0.40822932 0.3473605 -0.47398883 1.184454 -0.4283957
0.39838028 0.016386865 -0.5131273 0.7900046 -0.55755156 -0.5743315 -0.1805977 -0.17462347
0.5608812 -0.7694032 -0.21194044 0.98494494 -0.2966971 -0.48143724 -0.56782883 0.4300507
-0.24495475 -0.3287884 -0.08154279 0.35085645 0.14314948 -0.058595702 -0.6979325 0.15915222
0.0025427851 0.29796016 0.058327883 0.31337506 0.39398924 -0.15633966 0.6387851 -0.46151206
0.14502792 -0.14084373 0.34523135 -0.26761052 -0.4123106 0.24152248 -0.08446541 -0.37174344
0.33763838 -0.6117066 0.5708284 0.0051605934 0.33502758 0.6271829 0.6880168 0.7828798
0.45750532 -0.46419206 -0.41557994 -0.15584484 0.41214168 0.20457093 -0.09815428 -0.1322596
0.94862515 -0.14348021 0.037248835 0.54064006 -0.5204552 0.040269583 -0.20133062 0.19477849
0.51506203 -0.016098818 0.9821463 0.08853241 -0.013600233 -0.76225114 -0.38491204 0.9448808
00000000: f245 ca3e 6cea 033e 332b 0b3d 4396 da3e
00000010: e073 fc3e 5e7d 42bf f722 36be 61a2 143e
00000020: 4969 07be 9ad6 1b3f f41d 553d 62cb ad3d
00000030: 4899 1dbf eb57 7bbf 0eeb 5bbe 6d0b 8abc
00000040: a905 19bf 34e6 7abf 7b65 7ebe 06db bebe
00000050: ee37 8bbd 375b 09bf 518c de3e a867 1f3e
00000060: b1a0 74bf 453a 68bd def3 1ebe 662a 0bbe
00000070: deac db3e 9f38 bdbe 299d aa3e 8294 cbbc
00000080: 9c3e 8cbf 48c1 efbe baf6 943e 2ae9 833e
00000090: 9b4b e13e 483e 93bf aa61 4f3f 6ac2 b6bf
000000a0: 0f31 853f 9c5c 093f b6d3 90be b849 b4be
000000b0: feda 8cbd 7024 9a3e 7b9b 203d c135 003e
000000c0: 8184 9fbe 6abd 563e 381e 2b3f 9774 1e3e
000000d0: e84d a0be fe16 2c3f 9f80 c1be 40cb 08bf
000000e0: b2ba 3d3f f8d6 753c c6d7 91be 770f ce3d
000000f0: b27b 393f a024 8d3d 39d1 b73e 6e24 d5bd
00000100: 80d7 79be ba1f 9cbe d34e a83e 9fa6 38be
00000110: 9920 353f 6a82 0ebf 2b35 873f f80f 4bbe
00000120: 128d 063f 1c12 33bf e442 2f3e a8f8 edbe
00000130: 74ad 3bbe 6e18 c6be 6828 5e3e 14d9 61be
00000140: 19a1 0abf 0fef 483e ae08 863e 4b03 ae3e
00000150: 37ce fa3e 05c8 48bf 304b 813e 3c91 adbe
00000160: 8128 adbe 3371 d3be 3666 9fbe 079e a93e
00000170: 9e25 6f3f d54d bfbd e2b2 3e3e ea8b 063e
00000180: 60c8 c63e 598d a2be 515e 0bbe 4370 5fbe
00000190: 8900 413e 2aee 44bd 2da8 a03e c08f 3ebe
000001a0: b0e7 383c de0c b9be 1cd6 b63d d802 5d3e
000001b0: 8981 b53e a7cc 203e 5384 86bf 22e1 9bbe
000001c0: df5f 89be f584 bdbe b671 593f 1221 00bf
000001d0: 4fe4 f53d 0d6d 873e 508f e2be f77f e0be
000001e0: 4eea f73e 5c8a e7bd 8cc6 b7bd 5689 233f
000001f0: 3114 ad3e 2c73 26be a007 b0bd f404 efbe
00000200: 0f8a f03d 9c63 2f3d 117d 5abe cea9 e83e
00000210: 536b 3c3e 0ece 1cbf f76b 213f c60d cf3e
00000220: 34cc cbbe 00f6 efbd 4efc 453e e738 4c3d
00000230: c273 39be 151d fabe d152 aabd 0ecb 93be
00000240: d978 6fbf 4a1d 873c 6d68 6ebe 5854 4e3f
00000250: 2273 0e3f 9068 c4be 0096 083f 9b14 03bf
00000260: 2c27 7ebe 0572 da3e 5975 1c3f 7fef 2f3f
00000270: 1793 cb3e 290a 03be e943 38be 4935 433f
00000280: 91a0 643e bebd 54be 9389 62be b27d 283f
00000290: 7cdf 8b39 8c85 89bd 0600 cb3e e2d1 c13e
000002a0: a0ab 81bf efd6 7f3e c08d 71be 6921 94bd
000002b0: 3ead 583f c189 173e a3e1 d33d 733b e0bc
000002c0: 2214 fe3d 1936 5ebe dc6f d5bc 6f03 d1be
000002d0: 3cd9 b13e aaae f2be 309c 973f ae56 dbbe
000002e0: 80f8 cb3e bf3d 863c 505c 03bf be3d 4a3f
000002f0: b3bb 0ebf 6407 13bf 9aee 38be 7fd0 32be
00000300: e995 0f3f 9cf7 44bf ea06 59be 5a25 7c3f
00000310: afe8 97be f17e f6be 3b5d 11bf 9b2f dc3e
00000320: 6bd5 7abe f456 a8be e8ff a6bd 75a3 b33e
00000330: c795 123e 0c02 70bd b4ab 32bf cdf8 223e
00000340: dba4 263b 3c8e 983e 38e9 6e3d b272 a03e
00000350: f5b8 c93e 8117 20be 6c87 233f 4f4b ecbe
00000360: 3382 143e 5739 10be 2ac2 b03e 3f04 89be
00000370: 601a d3be ab51 773e 33fc acbd 2855 bebe
00000380: f0de ac3e ce98 1cbf cf21 123f 321a a93b
00000390: bc88 ab3e 0f8f 203f de21 303f d06a 483f
000003a0: 233e ea3e 95aa edbe e5c6 d4be ca95 1fbe
000003b0: 3c04 d33e 0b7b 513e 1c05 c9bd 106f 07be
000003c0: 19d9 723f 7aec 12be 3c92 183d 6367 0a3f
000003d0: 8d3c 05bf b8f1 243d 9d29 4ebe 0374 473e
000003e0: 1bdb 033f abe1 83bc f16d 7b3f 7b50 b53d
000003f0: 83d3 5ebc e422 43bf 3113 c5be b5e3 713f
