knet2_109D_tanh_[50_20_15_10_1]_0.0932/layer0_W.npy (npy, 21928 bytes, 1 tensors)

array f4 [109, 50]
-0.11647289 0.7853658 -0.29240334 0.4453762 -0.022494497 -0.15501934 -0.12504058 0.55694366
-0.032852765 -0.52495575 0.38378006 0.4791628 0.13237736 -0.7646807 0.29426375 0.25477543
0.045394942 0.17798573 0.008959898 0.14903446 -0.3276762 0.30719543 -0.10075059 -0.25994605
0.47699413 0.07241137 -0.30070144 0.36207834 -0.09868938 0.055232123 0.37415516 0.2889864
0.6358696 -0.117623225 0.26195198 -0.4544005 -0.473233 -0.29587895 -0.3974106 -0.27003157
0.36444658 -0.46994328 0.76111436 0.34775034 0.80590457 0.058945093 0.22319646 0.07449519
-0.4831174 -0.54781216 0.17462526 0.30415058 0.085945144 -0.34372222 0.13385828 0.061875712
0.70472056 -0.28905058 0.35871112 0.21269098 0.110065416 -0.45799866 0.042448353 -0.88898784
0.23202446 0.18794401 -0.03794311 -0.34513974 0.2943554 0.3038766 -0.24425013 0.85421634
0.013530331 0.053254563 0.22406758 -0.0691991 0.92504615 0.4070856 0.30653647 0.56942225
-0.2708362 0.016554711 -0.10921167 -0.34855202 -0.28600803 0.17920937 -0.59176797 0.16173357
0.77117246 0.08071722 0.5181584 0.130602 -0.07804775 0.15344872 0.10462614 -0.5048869
-0.4141304 -0.1471377 0.1283291 -0.5877125 -0.06461852 -0.70707506 -0.21587153 -0.29326934
1.6964753 -0.38176712 -1.4725218 0.13010277 0.5931212 -1.6506902 -0.5517568 1.8381834
1.2071456 0.28846234 -1.8782612 -0.23618272 0.9060109 -0.69936156 -0.6618162 -0.24916376
-0.8509797 -0.29744193 -0.39964023 -0.0054942127 -1.2486501 0.25668088 0.46469873 1.8234301
-0.19451363 -0.003218502 1.0204371 -0.6235917 0.40882704 -0.3877864 0.78544414 1.1699713
-0.099799246 0.4657472 -2.4946802 2.289817 -0.81062984 0.78899276 -0.6106343 1.4687554
0.15280128 -0.029000275 1.3525108 -0.26134312 0.084547736 -0.46105173 0.90959835 -0.049508035
-0.6823504 -0.29339534 -0.3599824 -0.5982456 -0.5501706 -0.32532275 -0.34391093 -0.1627657
-0.08872107 -0.023129355 0.30973455 -0.6289002 -1.0637227 -0.32266182 0.5831848 -1.2528974
0.2423393 0.6131051 0.33409756 0.19988896 0.41330653 -0.44899875 0.29581484 0.37014002
1.153263 0.1631812 -0.14153205 0.15255411 -0.18311946 -0.20857197 0.24435136 -0.22079012
0.4238151 -0.52947265 -0.14527941 -0.24449328 0.5545112 -0.4547878 0.046612598 0.02654818
-0.27984887 0.25405315 -0.18830542 0.07921271 0.21813276 0.00041696872 -0.41258687 -0.66105086
0.2097186 0.36069167 0.0039124493 -0.07279484 0.015773365 -0.06685575 -0.2829672 -0.15755148
0.030790318 0.022313373 0.00752538 -0.31247234 0.3397254 -0.2749886 -0.35268533 -0.3638108
-0.3570756 -0.16585778 -0.2413964 0.578959 -0.13150568 0.3380343 -0.22520266 0.050390985
0.12703669 -0.12575184 0.43664536 -0.06839325 0.19975613 0.14046004 0.058591295 0.48041567
-0.09304954 -0.30596018 0.06164948 -0.33851597 0.24916032 -0.46105275 -0.5091406 -0.08582115
-0.10465068 0.25415072 0.11611044 -0.18811874 0.23344499 -0.10260911 0.12951194 -0.058132153
-0.30684116 -0.09422943 -0.9941503 -0.4324793 0.5747643 -0.028416947 -0.49151775 -0.28192762
00000000: 5789 eebd bc0d 493f e4b5 95be 5908 e43e
00000010: 6146 b8bc 64bd 1ebe a30a 00be dc93 0e3f
00000020: 9f90 06bd 8063 06bf d27e c43e d454 f53e
00000030: ee8d 073e 1dc2 43bf bda9 963e ed71 823e
00000040: 0cf0 393d e441 363e 89cc 123c 7d9c 183e
00000050: 2dc5 a7be b848 9d3e 5356 cebd a617 85be
00000060: 9338 f43e 6a4c 943d 8af5 99be 5562 b93e
00000070: a81d cabd 143b 623d 4491 bf3e 07f6 933e
00000080: 5ac8 223f 72e4 f0bd 921e 863e 2fa7 e8be
00000090: 994b f2be 727d 97be 6779 cbbe 9441 8abe
000000a0: be98 ba3e 689c f0be 64d8 423f 550c b23e
000000b0: c34f 4e3f 6970 713d 9d8d 643e ef90 983d
000000c0: 2a5b f7be 6b3d 0cbf f7d0 323e a0b9 9b3e
000000d0: 0204 b03d 5cfc afbe 2512 093e 6371 7d3d
000000e0: 9168 343f 70fe 93be fca8 b73e aacb 593e
000000f0: fa69 e13d cd7e eabe 53de 2d3d b594 63bf
00000100: d297 6d3e 6574 403e 3c6a 1bbd 28b6 b0be
00000110: c0b5 963e b795 9b3e b51c 7abe ecad 5a3f
00000120: 52ae 5d3c 7521 5a3d f971 653e 42b8 8dbd
00000130: d3cf 6c3f 866d d03e 59f2 9c3e a8c5 113f
00000140: 0bab 8abe bf9d 873c 5eaa dfbd 6975 b2be
00000150: a56f 92be a982 373e 1b7e 17bf 7c9d 253e
00000160: 8f6b 453f 124f a53d 07a6 043f 88bc 053e
00000170: 80d7 9fbd a921 1d3e 3b46 d63d 4540 01bf
00000180: e608 d4be 44ab 16be b468 033e 5474 16bf
00000190: b756 84bd df02 35bf 6d0d 5dbe 6627 96be
000001a0: 1a26 d93f fb76 c3be 987b bcbf a939 053e
000001b0: cad6 173f d149 d3bf ef3f 0dbf 9849 eb3f
000001c0: bf83 9a3f 56b1 933e dd6a f0bf e2d9 71be
000001d0: 55f0 673f 5c09 33bf c96c 29bf c924 7fbe
000001e0: ced9 59bf 4f4a 98be a59d ccbe cc08 b4bb
000001f0: c4d3 9fbf ad6b 833e feec ed3e 2866 e93f
00000200: 952e 47be 81ed 52bb af9d 823f b5a3 1fbf
00000210: c751 d13e f08b c6be de12 493f 9fc1 953f
00000220: 8c63 ccbd 6b76 ee3e d7a8 1fc0 5d8c 1240
00000230: 7085 4fbf 6efb 493f 8852 1cbf 2d00 bc3f
00000240: f077 1c3e fc91 edbc 131f ad3f c4ce 85be
00000250: 5d27 ad3d f90e ecbe 70db 683f f0c8 4abd
00000260: 84ae 2ebf ea37 96be 9d4f b8be a026 19bf
00000270: fbd7 0cbf b490 a6be 1815 b0be 0dac 26be
00000280: 64b3 b5bd c679 bdbc 8795 9e3e 9aff 20bf
00000290: 1128 88bf ee33 a5be 994b 153f f15e a0bf
000002a0: cb27 783e 75f4 1c3f d60e ab3e b1af 4c3e
000002b0: ea9c d33e 2ae3 e5be 0b75 973e fe82 bd3e
000002c0: 1f9e 933f f918 273e c7ed 10be 2537 1c3e
000002d0: ab83 3bbe e493 55be 3e37 7a3e ce16 62be
000002e0: 4bfe d83e 858b 07bf 20c4 14be 725c 7abe
000002f0: 72f4 0d3f f2d9 e8be daec 3e3d 927b d93c
00000300: 5a48 8fbe 4113 823e 23d3 40be 463a a23d
00000310: 325e 5f3e 989c da39 963e d3be a13a 29bf
00000320: 79c0 563e 94ac b83e 0134 803b 7615 95bd
00000330: 2537 813c abeb 88bd 14e1 90be 2d55 21be
00000340: fa3b fc3c 89ca b63c 7697 f63b 60fc 9fbe
00000350: 7df0 ad3e 4ecb 8cbe 2c93 b4be 6945 babe
00000360: 9dd2 b6be 9fd6 29be 9e30 77be a836 143f
00000370: 6da9 06be d512 ad3e 879b 66be c766 4e3d
00000380: e815 023e 17c5 00be fb8f df3e c311 8cbd
00000390: df8c 4c3e c2d4 0f3e 6dfd 6f3d 0bf9 f53e
000003a0: c290 bebd d0a6 9cbe 2a84 7c3d f751 adbe
000003b0: e223 7f3e 1b0f ecbe 0a57 02bf 00c3 afbd
000003c0: 1953 d6bd 0b20 823e 4fcb ed3d 33a2 40be
000003d0: 340c 6f3e ba24 d2bd c79e 043e fb1b 6ebd
000003e0: 491a 9dbe 5cfb c0bd a280 7ebf ed6d ddbe
000003f0: c123 133f a8ca e8bc 37a8 fbbe d158 90be
