knet2_109D_tanh_[50_20_15_10_1]_0.0932/layer3_W.npy (npy, 728 bytes, 1 tensors)

array f4 [15, 10]
0	0xbef33ff2	-0.47509724
1	0xbf5a8e47	-0.8537335
2	0xbc67ff65	-0.014160012
3	0xbd0e5b4a	-0.03475503
4	0x3ebdeca2	0.370946
5	0xbed039f9	-0.4066923
6	0xbe24290c	-0.16031283
7	0x3e8fcf16	0.28087682
8	0x3e336cba	0.17521945
9	0x3e128b7a	0.14311019
10	0x3d836a18	0.0641672
11	0xbec4f505	-0.38468185
12	0x3f13fced	0.5780781
13	0x3ef45402	0.47720343
14	0x3f5b82ef	0.85746664
15	0x3b828ad9	0.003983837
16	0xbf8909ff	-1.0706176
17	0x3f164477	0.5869822
18	0xbf789d13	-0.97114676
19	0xbf8573e3	-1.0425991
20	0x3f1f55ee	0.62240493
21	0x3f95113b	1.1645883
22	0x3e156521	0.14589359
23	0x3f1744a4	0.5908911
24	0xbc9ce0e3	-0.019150203
25	0xbeed9f37	-0.46410534
26	0xbe671442	-0.22566321
27	0xbf1f4276	-0.62210786
28	0xbf2d6fa2	-0.67748463
29	0xbf06e940	-0.5269966
30	0xbba0e372	-0.004909926
31	0xbebdd849	-0.37079075
32	0x3ef801cd	0.48438874
33	0x3be3f811	0.006957062
34	0x3f3d9352	0.7405292
35	0x3edb0c3e	0.42782778
36	0xbe932018	-0.28735423
37	0xbf12e91f	-0.57386965
38	0xbe4359bd	-0.19077201
39	0x3d82a430	0.063789725
40	0xbf26cab9	-0.6515308
41	0xbe03b9eb	-0.12863891
42	0x3f05925d	0.5217646
43	0x3e63dea5	0.22252901
44	0x3f09ba5d	0.5379999
45	0xbe62c185	-0.22144134
46	0x3db15656	0.086590454
47	0x3e380295	0.17969735
48	0xbf320de7	-0.69552463
49	0x3e81b5b6	0.25333947
50	0x3d84ddcb	0.06487616
51	0xbd42edd1	-0.04759008
52	0xbe854e9c	-0.26036537
53	0xbf1335a4	-0.57503724
54	0xbec7acc5	-0.38999
55	0x3ed788e5	0.4209663
56	0xbd960f0b	-0.07327088
57	0x3ef387d2	0.4756456
58	0xbf5adb9f	-0.85491365
59	0x3f49bfbb	0.7880818
60	0xbeb249b2	-0.3482185
61	0xbece3394	-0.40273726
62	0x3bc87a80	0.0061181188
63	0x3ef735c3	0.48283204
64	0x3c93dca8	0.018049553
65	0xbf5ce912	-0.8629314
66	0x3ef9e570	0.4880786
67	0x3f198c35	0.59979564
68	0xbef76471	-0.48318818
69	0x3e775a18	0.24155462
70	0xbe03724c	-0.1283657
71	0x3d9457a0	0.07243276
72	0x3f004c42	0.5011636
73	0x3d8fcacb	0.070211016
74	0xbd7cd4ca	-0.06172637
75	0x3e7e85e1	0.24855758
76	0x3f559c23	0.8344137
77	0x3eee8cbf	0.46591756
78	0xbea4da0c	-0.32197607
79	0x3e870bc0	0.26376152
80	0xbf2130cb	-0.6296508
81	0xbe85138e	-0.25991482
82	0xbd20ed12	-0.039288588
83	0x3bc527ee	0.006016723
84	0x3f3ab6cd	0.7293518
85	0x3eb134f7	0.3461072
86	0x3f74f1fd	0.95681745
87	0x3e9d694e	0.30744404
88	0x3e4aa08c	0.19787806
89	0x3e938d6b	0.2881883
90	0xbe977c4b	-0.29587016
91	0xbe9929a6	-0.29914588
92	0x3e9a92c3	0.30190095
93	0x3eb69eb4	0.35667956
94	0x3e2a2db4	0.16618997
95	0xbef705a7	-0.482465
96	0xbd3279dc	-0.043573245
97	0xbe2b8576	-0.1675013
98	0xbe57afc5	-0.21063145
99	0xbf276667	-0.6539063
100	0x3f30f865	0.6912902
101	0x3e72cda0	0.23711252
102	0xbd026f65	-0.031844515
103	0xbe088de1	-0.13335373
104	0xbf1397f7	-0.57653755
105	0x3e1d5a0e	0.15366384
106	0x3f0c62b4	0.5483811
107	0x3e7a56e5	0.2444721
108	0xbf33d1f2	-0.70242226
109	0xbe2c5966	-0.16830978
110	0x3eadef49	0.33971623
111	0xbe547ce3	-0.20750766
112	0xbe9a7ba1	-0.30172446
113	0xbf010b87	-0.50408214
114	0x3eabf00b	0.33581576
115	0x3d856990	0.06514275
116	0xbf0b0d3d	-0.54317075
117	0xbee2ded9	-0.44310644
118	0x3eaf8f83	0.34289178
119	0x3ef7ae33	0.4837509
120	0x3ec7cb7e	0.3902244
121	0x3f304e0f	0.6886911
122	0xbe64ec3c	-0.22355741
123	0xbe24ba06	-0.16086587
124	0xbf1b7544	-0.6072581
125	0x3f0fcc1a	0.5617081
126	0xbef1ab3b	-0.4720095
127	0xbf9a5501	-1.2057191
128	0x3f6c726f	0.9236211
129	0x3f191eee	0.5981282
130	0x3f234aa0	0.63785744
131	0xbedf95d8	-0.4366901
132	0xbdf54845	-0.11976675
133	0x3e1c2cde	0.1525149
134	0x3dd3f30a	0.103490904
135	0x3e967f53	0.29394016
136	0xbc61a746	-0.013772791
137	0x3de27875	0.110581316
138	0xbe9909dd	-0.29890338
139	0x3eb35f53	0.35033664
140	0xbe1edfa8	-0.15515006
141	0x3efc7217	0.49305794
142	0xbe820aa4	-0.25398743
143	0x3f4b80fa	0.7949368
144	0x3f08f236	0.53494585
145	0xbe793ac0	-0.24338818
146	0xbe7e32ea	-0.2482411
147	0xbf3c0d4b	-0.73457783
148	0x3de898b5	0.113572516
149	0xbd697786	-0.056998752
