knet2_109D_tanh_[50_20_15_10_1]_0.0932/layer2_W.npy (npy, 1328 bytes, 1 tensors)

array f4 [20, 15]
00000000: f861 a63e 0cb7 803e 2f15 6e3f 19ca 45bf
00000010: 36bd 6a3e 4e4a 45bf 3bc1 4fbf 9800 b3bd
00000020: d599 503f 9f79 cd3e a62c 663f f780 5c3f
00000030: 6009 acbf 4a75 963f bd3a 1abe 6d3d dbbd
00000040: 227a 38be 9ad9 c93e c8f7 63be 00cd dfbe
00000050: 811d 523e b4a4 36bf 976e fdbe 0914 6ebf
00000060: 84a4 4e3e dfba 81bc 7481 063f 5cef 563f
00000070: 8eaf 87bf ce83 11bf 3d3a 873d 18b3 db3c
00000080: f352 3c3f e877 f43d 47ed 973e 190c a23f
00000090: 71a2 273d 350d cbbd acb8 3ebf 3acf 0abf
000000a0: 06d7 523f b44a 2d3e f19b c13f 5372 6bbf
000000b0: 7998 c4be 5726 5b3f 95c0 cdbe 4191 00bf
000000c0: 5052 12be 5853 41bf 651f e53d 45c0 d63d
000000d0: acdc 42bf 0e8f 80bd 17e0 f2be 3491 23bf
000000e0: 6b40 1f3f 217c 8cbe ef39 b6bf 8330 38bf
000000f0: e050 e73e 5ec2 bcbe fd5c 323f 9acf 823d
00000100: 0a61 e0be cc7d 02bf 4c07 d5be cc3d 78be
00000110: 9c0e 96bd fd0c 1bbf ca3e 0a3f d4e9 2fbf
00000120: f82a d9be ec8c 603f a3c7 7d3f 7c47 bf3e
00000130: 5f09 b0be 7dee 543f 41af 823d bdd3 763f
00000140: 6a14 563e c7ff 92bf 976b 133f 27dd 7c3e
00000150: 0d7e 443f 97ac 05bf 68ce 033f 3be7 1bbf
00000160: e740 74bf d408 a73e d987 02bf 7e52 f8be
00000170: a87a 273f e28f 623c 327f bf3e ae0f 0c3f
00000180: 65a3 8bbf 89c5 5bbf bf13 8d3f 870c 91be
00000190: 29a7 7cbf 8fa2 a9be d3ae 9bbe a09d 5ebf
000001a0: eb36 e3be 3272 0b3f 6fed fbbe 3f3c 90be
000001b0: 929e d6be d6b3 613f 406c 053f 78a6 453f
000001c0: 26e0 18bf e2a0 e23e 10b1 d7be efb6 043f
000001d0: 4f6a 29be 290d 563e 4f58 a5bf 8e36 8b3e
000001e0: 6d1e 80bf d8f1 9dbe 43fe a93f fefd 843d
000001f0: 10c4 efbe 0751 80bf 3d20 64be a898 58bf
00000200: 78eb 29bf b70e 333f 8f56 e53e 6392 a8be
00000210: a69b b13f e9b3 94be 2520 8a3e d38c c13e
00000220: 4d74 a23e 321a f1be efd7 1d3f c4cf 86bd
00000230: 072e be3e 12b0 c4bf 89c8 2cbe 6bf2 883c
00000240: bde5 a53d ca08 57bd af8f 1ebf 5b15 97bf
00000250: 3a1d fd3e 43d3 ba3e 29a6 ff3e 2439 75bd
00000260: 2c94 443f 3321 5e3d 6118 07bf 398f 903f
00000270: 4ebe 763f fc0f 9b3e 9def 57be f365 aebe
00000280: e260 d33d 8f2c 0dbf f00c 0140 35d1 95c0
00000290: b893 413e f3cf 4f3d 5647 973e 3d77 21bf
000002a0: b0e9 db3e fce4 29be 0679 e1bd 12ac dd3e
000002b0: 1a16 613b 70cf 6e3e b1f8 783e 9a6c 20bf
000002c0: 9796 853e e24a 903f 1f00 d0bd 6fa9 34bf
000002d0: 6ed2 f33e 5023 013f 6db1 0f3f ed79 33be
000002e0: e9e7 f23e 67b6 b43e 4855 fa3e 831b e13d
000002f0: 6e33 74bf 8b94 d0be 775b 853e 5f5e c03d
00000300: 8fb0 40bf 748f 0dbf e362 173f ea49 b03e
00000310: 65d8 10bf b19b 76be e08e 2dbe 9d78 2fbf
00000320: 03cd b0bd 0cbf 993e e66d ea3e 2159 94be
00000330: 105b 6d3e 96fa 17bf ef2f b6be d4d9 4fc0
00000340: 39c9 6a3f b478 1bbf 5e70 0c3e fd73 033f
00000350: 497e 8d3f bde0 ea3e fedf a8be b445 e43e
00000360: efe4 a53c 3ff0 1abf 56b4 66be 502f ca3e
00000370: 1d24 933e d972 c3bd c3c4 9b3e d72d 263f
00000380: aec8 ab3e 3742 1a3f e295 15bf 5e87 2d3f
00000390: 0a64 bfbe c7a0 1a3d 1720 053f aac1 37bf
000003a0: 018f ae3e 1ef4 24bf f5ec a83e bdf3 1dbe
000003b0: f21a 21bd ccef e33f 82aa 833f 71da 70bf
000003c0: 9476 76be 40d7 003f bdab 7f3e f9b2 ed3e
000003d0: 6f3c 083f ceb7 fd3d 7d78 663f 5ddb 4fbe
000003e0: 4acc a1be da74 61bf e314 223e a5c3 53bf
000003f0: 012e 973d aa50 14bf a849 883c 5d4d 2ebc
0.3249662 0.25139654 0.93001074 -0.772615 0.2292374 -0.77066505 -0.8115422 -0.087403476
0.8148473 0.40131852 0.8991188 0.86134285 -1.3440361 1.1754544 -0.1506147 -0.107050754
-0.1801534 0.3942383 -0.2226249 -0.4371109 0.20519067 -0.7134507 -0.49498436 -0.9299932
0.20179945 -0.015836177 0.5254128 0.83958983 -1.060045 -0.56841743 0.06602905 0.026818797
0.7356407 0.11936933 0.29673216 1.2659942 0.0409264 -0.099146284 -0.74500537 -0.5422245
0.8235935 0.16923028 1.5125715 -0.9197132 -0.38397577 0.85605377 -0.4018599 -0.5022164
-0.14289212 -0.755178 0.11187629 0.10485891 -0.7611797 -0.062772855 -0.47436592 -0.6389344
0.6220767 -0.27438453 -1.423643 -0.71949023 0.4517889 -0.3686704 0.6967314 0.06387253
-0.43824035 -0.509732 -0.4160713 -0.24242324 -0.07327005 -0.60566694 0.5400206 -0.6871617
-0.42415595 0.8771503 0.99132746 0.37359226 -0.3438215 0.83176404 0.06381083 0.96416837
0.20906225 -1.1484307 0.57586044 0.24693738 0.7675484 -0.52216476 0.51486826 -0.60899705
-0.95411533 0.32623923 -0.5098854 -0.48500437 0.65421534 0.01382825 0.3740173 0.54711425
-1.0909239 -0.8584829 1.1021651 -0.2832987 -0.98692566 -0.33131835 -0.30406818 -0.86959267
-0.44377837 0.54471123 -0.49204585 -0.28170964 -0.41917855 0.8816503 0.521183 0.77207136
-0.59717023 0.4426337 -0.42127275 0.51841635 -0.1654446 0.20903458 -1.2917575 0.2719006
-1.0009285 -0.30848575 1.328072 0.06493758 -0.4682927 -1.0024728 -0.22277923 -0.84607935
-0.6637492 0.6994433 0.447926 -0.32924184 1.3875625 -0.2904351 0.2697765 0.37802753
0.31729355 -0.47090298 0.61657614 -0.06582597 0.3714449 -1.5366232 -0.16873373 0.016717156
0.0810046 -0.052498616 -0.61937994 -1.1803392 0.4943636 0.36489305 0.49931458 -0.059868947
0.7678859 0.05423088 -0.52771574 1.1293708 0.9638413 0.30285633 -0.21087499 -0.34062156
0.10321213 -0.55146116 2.0164146 -4.681788 0.18904006 0.050735425 0.29546613 -0.6307257
0.42951727 -0.16591257 -0.110094115 0.43295342 0.003434545 0.23321319 0.24313618 -0.6266571
0.26091453 1.1272852 -0.10156273 -0.70571035 0.47621483 0.5044451 0.56130105 -0.1752698
0.47442558 0.35295412 0.4889319 0.109915756 -0.95390975 -0.4073833 0.26046345 0.09393
-0.7526941 -0.5529702 0.59135264 0.34431392 -0.5658019 -0.24082829 -0.16949034 -0.68543416
-0.08632853 0.3002857 0.4578697 -0.2897425 0.23179269 -0.5936674 -0.35583445 -3.2476702
0.9171329 -0.60731053 0.1371474 0.5134886 1.1054164 0.45874587 -0.32983392 0.4458443
0.020250766 -0.60522836 -0.2252973 0.39489222 0.2873849 -0.0954339 0.30423555 0.64913696
0.33551544 0.60257286 -0.5843183 0.6778468 -0.3738101 0.037750985 0.5200209 -0.7177988
0.34093478 -0.64434993 0.32993284 -0.1542501 -0.039332338 1.7807555 1.028641 -0.94083315
-0.24068671 0.50328445 0.24967857 0.46425608 0.53217214 0.123885736 0.900276 -0.20298524
-0.31601173 -0.88068926 0.1582828 -0.82720405 0.073818214 -0.57935584 0.016636685 -0.010638562
