knet2_76D_tanh_[60_50_40_20_1]_0.0777/layer0_W.npy (npy, 18368 bytes, 1 tensors)

array f4 [76, 60]
00000000: 1c04 093d c1a6 18bf 05a0 f6be 3134 4e3f
00000010: eac2 41be ee25 9ebd ef6a 2ebf 0907 a3be
00000020: d985 50bf 33c9 523e f845 fd3e 4e9a 3dbf
00000030: e40f 393c dfd1 203e 1cf3 c4be 7449 19bf
00000040: f1a5 2cbe a7b2 2c3f d7ea af3e 83ce 9d3d
00000050: 2536 203f 1f85 7ebc d626 44bd 4e49 c8be
00000060: a61c 1a3e b7a6 52bf b4a3 b43e 51ed 23bc
00000070: 7c6c 043f 126a fb3b 8ff0 b13e 2de3 ecbe
00000080: 728c 30bd d02d 09be 826a 15bf 1900 f33e
00000090: 54d7 f43e 2650 1dbe 541d ff3e 9362 83bd
000000a0: 32cb 1fbf 5677 213c 0720 57be 68cd 653f
000000b0: 8a3d 2f3f 907d 0dbf 2537 3c3f 8f4d 86be
000000c0: 2a2d 31be 4afd 4bbf a36e 6abe 6432 19bf
000000d0: 3a68 9fbe c926 05bf c54f d33e a6f0 cd3e
000000e0: 969d 7cbe dbef 48be d4cd 27be bd4d 82bd
000000f0: a61d 813d 4da0 8b3f 0dae 013e ebd9 323f
00000100: fa21 633f f016 0ebd 54a8 213e 1c88 b6be
00000110: 386d 31bf 3aba b4bf 8466 eebd e01f 013f
00000120: f40a 653f b9ea 13bf 78e8 a4bc 3bef 86bf
00000130: ae62 5dbe cd1c aebe 5ee3 0bbe 8f19 f5bd
00000140: c6f3 e13e 623c 033e d4bf 7f3e e0d1 563f
00000150: 0eeb 9ebe 20dd 5dbf 1604 9c3e a82e b2bd
00000160: 9348 4a3f 7503 0b3f 49b1 2bbf 9e05 b03e
00000170: dff2 143f 7894 50bf a088 0abf 251a 25bf
00000180: 74a4 efba 696d 8ebe 917a dd3e 5bb9 fbbe
00000190: 607c 443f ad69 8c3e ea67 f73d af08 c43e
000001a0: 59eb cfbf 92d7 a6bd dfeb 223e b453 d73e
000001b0: e347 33bf 779c 153e d421 c73e 033f 453f
000001c0: 2858 ddbe 4a38 02bf 75c6 b33e 7e43 583e
000001d0: ff58 41be 1f41 273f fa80 333f df9f 5c3e
000001e0: 4e8c a8be 37e7 c9bf 7575 f8bf f383 303e
000001f0: bb29 0cbf c4f7 5dbe bb97 3a3e faff 6d3f
00000200: bb3c 0e40 7eb0 1940 ec02 ecbe d86b 3b3f
00000210: 4c48 9fbe c387 b53e d996 9c3f a6d3 1440
00000220: f990 bb3f 84f8 0740 ddae 633f fc6f 293f
00000230: 3063 45bd 6d46 4d3f 5f88 6a3f 9fa4 87bf
00000240: f803 2c3f 9b0b 833f 845e ca3e 0205 883e
00000250: e287 f0bd ac02 cc3e dd32 fb3f 9142 223f
00000260: 50dd 97bf 9ead 323f 4857 e2bf 5f12 97be
00000270: 8bfe 90bf 4ddf 313e b0e0 523f 29cc 94bf
00000280: 257e 653e 57f2 2dbb 003d e73f 5317 78bf
00000290: 3748 1340 ef0a 60bf 31e5 c13e a4e9 95bf
000002a0: 36e0 fd3f afa9 b0be 81b3 483f bf6e ecbf
000002b0: 8c5b 4b40 1dc7 dbbf 8875 343f f1e1 f63c
000002c0: 2b0f fe3e d756 03c0 7fb8 f5bf e556 9cbf
000002d0: a96a 5cbf b502 9bbe c6c2 d23e 2ad9 aabf
000002e0: 2f4f 58be e2ad 993e feb7 6a3f 74dc bc3c
000002f0: 4a78 11be 7b05 d83e 6ee0 663d a3e6 153f
00000300: 77ef 5abf 8c23 f3bc 4e66 e2be 7659 dbbd
00000310: 8e57 5e3e f6b6 02bf dd35 a5be 0400 133f
00000320: 4223 bdbe 5874 d83e fca2 e53d da44 b1bd
00000330: d67e 163f 95cc 203f 00cb b4be e3e3 41be
00000340: 1101 c03e f63c 93bf 1046 293f cc64 08be
00000350: 4fb2 a8bc 4cd9 3f3e 0ee1 30bf 5d9a e23e
00000360: d599 a43e b17b ba3e 9a42 9bbe efce 7dbe
00000370: 6f4a 36bf b963 003f 644d 0d3f dfbd 4ebd
00000380: 637a cd3e ffdb 96be bdc5 01bf e1b9 35bf
00000390: 34bf 143f 4392 fdbe 4804 9bbc 19a1 9f3e
000003a0: 84c6 603f ed65 b53d 58c2 7fbd 0637 7d3e
000003b0: 591e e7be 680c 063f d3d0 9d3e 0d8c 0b3f
000003c0: ac11 9bbe 3751 38be e7b7 62be 703a 3f3d
000003d0: 6110 a03d f2f4 1bbf f4d1 633e d159 003e
000003e0: f2a0 b83e 40da 13be 2497 fbbe d748 b33c
000003f0: 9ed7 903e 6919 83be 941b b43d eff1 4bbe
0.033451185 -0.59629446 -0.4816896 0.8054839 -0.1892201 -0.07722078 -0.6813192 -0.31841305
-0.81454235 0.20584564 0.49467444 -0.74063575 0.0112952925 0.1570506 -0.38466728 -0.59877706
-0.16860177 0.674601 0.34358856 0.077054046 0.6258262 -0.015534668 -0.0478886 -0.39118427
0.15049991 -0.82285637 0.35281146 -0.010005311 0.51728034 0.0076725567 0.34753844 -0.4626707
-0.04310269 -0.13396382 -0.58365643 0.47461012 0.47820532 -0.15362605 0.49827063 -0.06415286
-0.62419426 0.009855112 -0.21008311 0.8976655 0.68453276 -0.5526972 0.73521644 -0.26231048
-0.17302385 -0.79683363 -0.22893767 -0.59842515 -0.31134206 -0.52012306 0.41271797 0.40222663
-0.2466949 -0.19622748 -0.16387111 -0.06362484 0.06304483 1.0908295 0.12664051 0.69863766
0.8872372 -0.034689844 0.15786868 -0.35650718 -0.6930728 -1.4119332 -0.11640647 0.5043926
0.8946984 -0.57780033 -0.020130381 -1.0541757 -0.21619675 -0.34006348 -0.13660952 -0.119677655
0.44131297 0.12816003 0.2497552 0.83913994 -0.31038707 -0.86665535 0.30471867 -0.08700305
0.7901699 0.5430215 -0.6706739 0.34379286 0.5818309 -0.81476545 -0.54114723 -0.6449302
-0.0018283264 -0.27817848 0.43257573 -0.49164852 0.7675228 0.27424374 0.12080367 0.38287875
-1.6243697 -0.081465855 0.1591029 0.42056048 -0.70031565 0.14610468 0.38892996 0.77049273
-0.4323132 -0.5086714 0.35112348 0.21119496 -0.18881606 0.6533374 0.7011868 0.21545361
-0.32919544 -1.5773686 -1.9410845 0.17237835 -0.54751176 -0.21676546 0.18221943 0.92968714
2.2224567 2.4013972 -0.4609598 0.7321143 -0.31109846 0.3545514 1.2233535 2.325418
1.4653617 2.1245432 0.88938695 0.661865 -0.048190296 0.80185586 0.91614336 -1.0597113
0.67193556 1.0237917 0.39525235 0.2656632 -0.117446676 0.39845788 1.9624897 0.6338282
-1.1864414 0.6979617 -1.7682886 -0.29506204 -1.132768 0.17370339 0.82374096 -1.1624805
0.22411402 -0.002654215 1.8065491 -0.9691059 2.3012826 -0.87516683 0.37870172 -1.1711926
1.9834049 -0.34504458 0.783989 -1.8471297 3.1774626 -1.717014 0.7049184 0.030137034
0.49620947 -2.0521753 -1.9196929 -1.2214018 -0.8610025 -0.30275503 0.41164225 -1.3347523
-0.21123956 0.30015475 0.91687 0.023054339 -0.14206043 0.4219168 0.056366377 0.5855505
-0.85521644 -0.029680036 -0.44218677 -0.10710423 0.21713087 -0.51060426 -0.32267657 0.574219
-0.36940962 0.42276263 0.112127274 -0.086557105 0.58787286 0.6281217 -0.35311127 -0.18934588
0.37500814 -1.1502979 0.6612253 -0.13319701 -0.020592837 0.18735236 -0.69093406 0.44258395
0.32148615 0.36422494 -0.3032425 -0.2478597 -0.71207327 0.50152165 0.55196214 -0.050474044
0.40132436 -0.2946472 -0.5069235 -0.70986754 0.5810425 -0.4952565 -0.01892294 0.31177595
0.8780291 0.088573314 -0.0624412 0.24728021 -0.4514034 0.5236268 0.30823383 0.54510576
-0.3028692 -0.17999731 -0.22140466 0.04668659 0.07815624 -0.6092063 0.2224806 0.12534262
0.36060292 -0.14438725 -0.4913875 0.021885319 0.28289503 -0.25605324 0.087943226 -0.19916509
