knet2_76D_tanh_[60_50_40_20_1]_0.0777/layer1_W.npy (npy, 12128 bytes, 1 tensors)

array f4 [60, 50]
000000 81 df 3b 3f f9 29 aa 3e 3b e7 96 3e 9f 0e 6a 3f
       0.73387915 0.33235148 0.2947329 0.9142856
000010 b1 a4 1c bd 8b aa 0f be ca e7 aa be dc aa 4d be
       -0.038243 -0.140299 -0.33379966 -0.20084709
000020 cf 97 5f 3e 4d 76 b0 3d 16 19 eb bd aa 07 ea bd
       0.21835254 0.08616314 -0.11479394 -0.11427243
000030 eb 26 1a be 12 41 3a 3e 7e 8c 2a bf 35 fa 1b be
       -0.15053909 0.18188885 -0.66620624 -0.15232165
000040 c2 f8 c1 bf 32 65 a3 3d 53 e7 66 bd d3 6c 12 3d
       -1.515404 0.07978286 -0.05637295 0.035748314
000050 24 ec 38 3f f8 fd 42 3e 4c e3 63 3f 7c ab 83 3e
       0.7223532 0.19042194 0.890187 0.2571677
000060 fb 17 c3 bd e3 8e 9a be 0f dd 14 3b 8c e8 d3 3e
       -0.09526058 -0.3018714 0.002271477 0.41388357
000070 67 23 cd bb 56 81 98 3e 07 cc 35 3f 15 c8 83 bd
       -0.006260324 0.29786175 0.71014446 -0.06434647
000080 5e c6 ae bd 84 e3 af 3e 22 b0 c2 3e 85 88 06 3f
       -0.08533929 0.34353268 0.38025004 0.5255206
000090 74 21 d8 3c 44 b1 54 bf d1 f7 f5 be 93 82 a5 bf
       0.02638314 -0.83082986 -0.4804063 -1.2930473
0000a0 c5 8e ed be eb b1 b9 be 7b 37 25 bd cd 08 1d bf
       -0.46397987 -0.36268553 -0.040336113 -0.61341554
0000b0 2b cd 7e 3f 71 0d 07 3f bb d0 6c bf 68 5f ba 3d
       0.9953181 0.52754885 -0.92506 0.091002285
0000c0 61 d1 7d bf 4a c9 e4 be 34 77 ce 3f cf 9b bd bf
       -0.9914761 -0.4468482 1.6130128 -1.4813174
0000d0 2d bc d9 3e 98 42 76 bf 85 5f 08 3c f4 95 ed be
       0.4252638 -0.96195364 0.008323555 -0.46403468
0000e0 96 01 92 3f f1 fe a2 3b 8c c7 06 3f 06 22 7a 3e
       1.1406734 0.004974239 0.52648234 0.24427041
0000f0 34 fb bf 3e 56 55 89 be 86 a2 0a be b3 58 ff be
       0.3749634 -0.2682292 -0.1353856 -0.4987236
000100 7e 70 bf be 67 5f c1 be e1 54 c2 3e 63 c6 0d 3f
       -0.37390512 -0.377681 0.37955382 0.5538084
000110 a9 cb 7a 3f 4f dc 93 be 11 5f 28 be b9 88 2d bf
       0.9796701 -0.2887902 -0.16442515 -0.6778675
000120 87 bd 23 bf 3a 8c 5f 3e bb 05 a0 3d a1 72 e7 bc
       -0.6396107 0.21830836 0.07813593 -0.028252902
000130 76 10 88 3d 0e 7a 32 be b7 e9 f4 bb dd 96 0b be
       0.06643765 -0.17429373 -0.00747415 -0.13631769
000140 26 0b 1c be bd f5 77 3f 43 e3 14 bf 27 ef 3a 3d
       -0.15238628 0.9685934 -0.58159274 0.04563823
000150 75 d2 4a 3f 38 74 9d bd 33 96 02 bf 45 41 11 bf
       0.7922738 -0.076881826 -0.51010436 -0.5674022
000160 a6 fe 2e bf 9c f4 73 be f7 15 f9 3d c8 9f 3e bf
       -0.6835731 -0.2382378 0.121623926 -0.74462557
000170 b5 7e 22 3f fd 10 b5 3e 3f 13 86 3e e2 82 8c 3e
       0.6347459 0.35364524 0.2618656 0.27443606
000180 c5 2d 30 bf cd ca 33 bf c2 a5 ed 3e 09 0e d0 bd
       -0.6881984 -0.70231324 0.46415526 -0.10158927
000190 7b 40 57 3f 97 1f 03 bf 92 84 20 3f 19 fd 96 3c
       0.84082764 -0.5122008 0.62702286 0.018431233
0001a0 21 3f e2 3e 9b 20 01 3f c6 89 27 3f 95 7e 29 3f
       0.4418879 0.50440377 0.654446 0.66208774
0001b0 20 ae 4e bf aa 3a 9d bf 0e b7 cc be a6 1c 96 bf
       -0.80734444 -1.2283528 -0.3998341 -1.1727493
0001c0 7f 1c 2d 3e 5a bd 9a bf 6d 7d bf be 48 15 57 3f
       0.16905402 -1.2089036 -0.3740038 0.8401685
0001d0 78 c1 3b 3e 13 45 35 bf 5b 78 d7 be a1 1b 75 bf
       0.18335521 -0.70808524 -0.4208401 -0.95745283
0001e0 81 8a 45 bf 25 7e 1b bf 88 70 02 bf 23 f6 78 be
       -0.77164465 -0.60739356 -0.5095296 -0.24312644
0001f0 d9 7a 80 bf bf ef b7 3d e5 26 0f 3e ac 54 d3 3b
       -1.003749 0.08981275 0.13979681 0.0064493027
000200 89 85 25 bd 5e 4d 44 3c c4 1f 5e bf ae a0 64 3e
       -0.040410552 0.011981336 -0.8676722 0.2232692
000210 12 80 d4 bf 24 90 2f bf 47 68 9d be 3a 03 d5 3e
       -1.6601584 -0.68579316 -0.3074362 0.41604024
000220 b9 e3 cd be 1d b7 cb be 2d 8c 09 bf ca 88 79 bf
       -0.402128 -0.39788142 -0.53729516 -0.9747435
000230 ea ca 96 3e a7 42 ad bf 46 69 8f be b8 d1 da be
       0.29451686 -1.3535966 -0.28010005 -0.42738128
000240 91 f7 8a bf a2 48 97 3f f9 c3 fa be 72 e0 7b bf
       -1.0856801 1.1819041 -0.4897764 -0.9838935
000250 6d 69 45 3f 51 00 21 be 20 91 04 3f 20 18 b1 3e
       0.7711399 -0.15722777 0.51783943 0.34588718
000260 31 3e cc bc b2 8b 1d bf 9b 40 bf bf 65 96 b7 3e
       -0.024931999 -0.61541283 -1.4941591 0.3585693
000270 43 0a 38 bf f4 e4 82 bf 02 ae 8b bd 8e 64 c1 bd
       -0.7189066 -1.0226121 -0.06820299 -0.094430074
000280 a5 79 a3 be 12 0f c9 bd ab de 5d be 82 f1 a5 3f
       -0.31928745 -0.098173276 -0.21666972 1.2964327
000290 a4 22 0c bf 5e 2d 82 be 55 ec 2a 3f dc 91 02 3f
       -0.5474036 -0.25425237 0.66766864 0.51003814
0002a0 7e 83 0a bf 1a 22 60 bd 5f 00 85 bf b8 a2 80 bf
       -0.5410689 -0.05472002 -1.0390738 -1.0049658
0002b0 96 f4 2b 3f 2c c8 9e 3f 0e 36 2f 3f ee 5f 07 bf
       0.67170084 1.2404838 0.68441856 -0.5288075
0002c0 be 0e 2e 3f 8a 66 89 3f f0 52 e9 be 79 58 cb 3f
       0.67991245 1.0734417 -0.4557109 1.5886375
0002d0 69 9d 09 bf 11 ff c6 be 03 0a c9 3e 30 3e ac 3e
       -0.53755814 -0.38866475 0.3926545 0.33641195
0002e0 f8 58 1c bf 32 8a d5 3e dc 2e 3d 3e d4 4e e9 3f
       -0.61073256 0.41706997 0.18474907 1.8227181
0002f0 38 da a4 be 73 6a c1 bf f5 28 8b 3e d0 1c 3b 3f
       -0.32197738 -1.5110611 0.27179685 0.7309084
000300 f4 94 84 3e f1 00 09 be 16 0b e4 be 16 0a b4 3b
       0.25894892 -0.13379265 -0.44539708 0.0054943664
000310 18 45 8c be d7 c3 54 bf ed a1 6d bd 77 ce 5f 3f
       -0.27396464 -0.8311133 -0.058015753 0.87424415
000320 7c 62 64 3f b8 5f a0 3e af 01 15 be 2f b7 ac be
       0.89212775 0.31323028 -0.14551423 -0.33733508
000330 3b c3 2e 3e 72 ba 63 bf b7 dd 24 3b e3 ec 07 3f
       0.17066662 -0.8895637 0.0025156566 0.53095835
000340 8f df 71 bf 4d 50 36 be 73 42 42 bd d0 7c d8 be
       -0.9448175 -0.1780407 -0.047426652 -0.42282724
000350 a9 fb 4c 3e 1a 62 72 3f 5a 02 34 3d 70 ca 68 bf
       0.20017876 0.9468094 0.043947555 -0.90933895
000360 e0 72 b1 be da d5 c7 3e 37 8f 49 bf 3e c8 d5 3e
       -0.34657955 0.39030343 -0.78734154 0.41754335
000370 91 7b f9 3b c4 97 05 bd bc 3a d8 3d f1 ee 89 bd
       0.007613607 -0.032615438 0.10558078 -0.067350276
000380 18 69 2a be 21 20 94 bd 9d 6f 6c bf b8 65 db 3e
       -0.16641653 -0.072326906 -0.9235781 0.42851043
000390 a1 fb 68 bf 50 d2 3e bf 37 75 8a bd af 15 19 bf
       -0.91008955 -0.7453966 -0.06760638 -0.5979871
0003a0 cd 13 90 bc d3 c8 f9 be be 81 b1 3f 18 96 a5 bb
       -0.017587567 -0.4878603 1.3867719 -0.005053293
0003b0 43 a4 a1 3e ac aa 26 3e 5c 4f fc 3d 5d e0 7d 3e
       0.31570634 0.16276044 0.12319824 0.24792619
0003c0 9e 79 9c bf 50 ec 91 be f4 84 92 be de 98 53 3f
       -1.2224615 -0.28500605 -0.2861706 0.8265513
0003d0 c6 56 9b bf 9d 11 e3 3e bf 94 ad 3f 69 db b1 3c
       -1.2135856 0.44349375 1.3561019 0.021711068
0003e0 3c 16 70 3e 75 92 15 3f 31 f9 62 3f 8e c8 b7 3d
       0.23445982 0.584266 0.88661486 0.089738
0003f0 52 e9 5d be f8 9f e6 be e2 47 28 3f bb 4f 50 3c
       -0.21671036 -0.4504392 0.65734684 0.012714322
