knet2_76D_tanh_[60_50_40_20_1]_0.0777/layer2_W.npy (npy, 8128 bytes, 1 tensors)

array f4 [50, 40]
0	0xbe79db9a	-0.24400178
1	0x3d4cd214	0.050005034
2	0x3edf18c0	0.4357357
3	0xbf84d0ed	-1.0376259
4	0x3e2e719e	0.17035529
5	0x3f081674	0.5315926
6	0x3d84678a	0.06465061
7	0x3f301f77	0.6879801
8	0xbfb61057	-1.4223737
9	0xbefdd4e4	-0.49576485
10	0xbeaae2d6	-0.33376187
11	0xbe8343a0	-0.2563753
12	0xbb936122	-0.004497663
13	0xbe1ab537	-0.1510819
14	0xbf00c66e	-0.5030278
15	0xbef142aa	-0.47121173
16	0x3ed88e2a	0.42295963
17	0x3d7f2c9b	0.0622984
18	0x3f9a7f31	1.2070066
19	0x3f186ab1	0.595378
20	0xbe940ff5	-0.28918424
21	0x3e00a5a5	0.12563188
22	0x3d727993	0.059197973
23	0xbe41d1fa	-0.18927756
24	0x3f8e2e15	1.1107813
25	0xbe4012d7	-0.18757187
26	0x3f60789b	0.8768403
27	0x3ea9ff03	0.3320237
28	0x3f546b86	0.8297657
29	0x3d9ddf43	0.077085994
30	0xbe872567	-0.26395723
31	0x3f01b9c2	0.5067407
32	0xbf1f0e08	-0.62130785
33	0xbb86ebfe	-0.004117488
34	0xbf212356	-0.62944543
35	0xbf530b6b	-0.824393
36	0x3f76dd56	0.9643148
37	0x3f0540ec	0.5205219
38	0xbef684ab	-0.48148093
39	0x3f0e2bad	0.55535394
40	0x3e4a72af	0.19770311
41	0xbefade66	-0.48997802
42	0x3ea70275	0.32619062
43	0xbf31684f	-0.6929979
44	0x3eaf5f3a	0.3425234
45	0xbf9297c2	-1.1452563
46	0xbefde186	-0.49586123
47	0xbd916e7a	-0.0710115
48	0xbf1b325d	-0.60623723
49	0x3f01590f	0.5052652
50	0xbd23ed0a	-0.04002098
51	0xbfa9ca1f	-1.3264807
52	0xbea0e1b3	-0.31422195
53	0xbdff5fef	-0.1246947
54	0xbecf0049	-0.40429905
55	0x3e1ea22b	0.1549155
56	0x3f590b2b	0.84782666
57	0xbf12783b	-0.5721471
58	0x3eb11e07	0.34593222
59	0x3e0e2cd5	0.1388429
60	0x3ddb6db1	0.10714281
61	0xbec04e7f	-0.37559888
62	0x3f159082	0.58423626
63	0x3f5d72a4	0.8650305
64	0xbead9fe1	-0.3391104
65	0xbee2c861	-0.44293502
66	0xbf130a2f	-0.57437414
67	0x3eb7ad5a	0.35874444
68	0x3eeab56c	0.4584154
69	0xbac471e0	-0.0014987551
70	0xbedf060e	-0.43559307
71	0x3e0148a8	0.12625372
72	0xbf5d3264	-0.86405015
73	0x3ece2dd2	0.40269333
74	0xbe973b6a	-0.29537517
75	0xbf2fbecb	-0.686505
76	0xbe4b4614	-0.19850951
77	0x3eda1bdc	0.4259938
78	0x3fc433ed	1.5328346
79	0x3d91401c	0.07092306
80	0xbd1ce666	-0.038305663
81	0xbe987718	-0.2977836
82	0xbf0361b1	-0.5132094
83	0x3e08343d	0.13301177
84	0xbec3abf3	-0.38217124
85	0xbf8240bd	-1.0176007
86	0x3f2c5aa4	0.67325807
87	0x3f17b7d9	0.59264904
88	0x3f48c18d	0.78420335
89	0x3eaa036f	0.33205745
90	0x3ffcc48a	1.9747479
91	0x3f11707e	0.56812274
92	0x3fcd0eb1	1.6020108
93	0xbe1c1684	-0.15242964
94	0x3efdd2f7	0.49575016
95	0x3f0d4e7a	0.5519787
96	0x3ed61af6	0.41817445
97	0xbebc5c1f	-0.36789033
98	0xbf0f7f77	-0.5605387
99	0xbf29f803	-0.6639406
100	0x3d741fa0	0.059600472
101	0x3f392d9c	0.7233522
102	0x3dbedae6	0.09319095
103	0xbf339d0f	-0.7016153
104	0xbf207e95	-0.6269315
105	0xbe5fd185	-0.21857269
106	0x3eddefb9	0.43346956
107	0x3e1ebccb	0.15501706
108	0x3d49aadc	0.04923521
109	0xbd9ce129	-0.076601334
110	0xbf4e3eaf	-0.805644
111	0xbf0747ea	-0.5284411
112	0x3fbe7451	1.4879247
113	0x3f854413	1.04114
114	0xbe8afab8	-0.27144408
115	0xbf0a845c	-0.54108214
116	0x3ec8d780	0.39226913
117	0x3eb0fbe5	0.3456718
118	0xbf0029a7	-0.50063556
119	0xbfa4c922	-1.2873881
120	0x3f8b6ce8	1.089261
121	0x3eccf38a	0.40029556
122	0x3ee98ee9	0.45616844
123	0xbe082f6a	-0.13299337
124	0x3c3b8b28	0.011446752
125	0x3f0cf3e9	0.5505968
126	0xbd2da583	-0.042394172
127	0xbe70565d	-0.23470445
128	0x3eee1b9d	0.46505442
129	0xbfa715ec	-1.3053565
130	0xbf4350ec	-0.7629535
131	0xbf4990d5	-0.7873662
132	0x3c7e701b	0.015529658
133	0x3f6d3902	0.9266511
134	0xbec76718	-0.38945842
135	0x3f58fcee	0.8476094
136	0x3efce8a0	0.4939623
137	0xbd2f7037	-0.042831626
138	0x3ebd9fa9	0.37035874
139	0xbedbc639	-0.4292467
140	0xbf0f7738	-0.5604129
141	0xbf800956	-1.0002849
142	0xbe8d82de	-0.27638906
143	0xbe8736d7	-0.26409027
144	0x3f07e764	0.5308745
145	0xbf633f0e	-0.8876809
146	0x3e2d49ba	0.16922656
147	0x3e7bf66a	0.24605718
148	0x3f0787ec	0.52941775
149	0xbe3902fe	-0.18067548
150	0xbe2a6ebe	-0.16643807
151	0x3d3babae	0.045818023
152	0x3f312cf6	0.6920923
153	0x3d4bc3fa	0.049747445
154	0xbea897fa	-0.3292845
155	0xbf886493	-1.0655693
156	0x3f4f8faf	0.8107862
157	0xbe8c2ba1	-0.27377036
158	0xbdc22120	-0.09478974
159	0xbe25ee9d	-0.16204305
160	0x3f38a32d	0.72123986
161	0xbd771bd9	-0.060329292
162	0xbd03d22d	-0.03218286
163	0x3f2e3751	0.68053156
164	0x3ea1a56b	0.31571516
165	0x3f4f049f	0.80866426
166	0xbfa388f5	-1.2776171
167	0xbf3c34a4	-0.73517823
168	0xbf209bc5	-0.62737685
169	0x3c81ddd1	0.01585284
170	0x3c139842	0.009008469
171	0xbf69c745	-0.91319686
172	0x3e677d9d	0.22606511
173	0xbf311921	-0.6917897
174	0xbe90f9e6	-0.28315657
175	0xbf807dab	-1.0038351
176	0x3e0b657f	0.13612936
177	0xbfd4fb5e	-1.6639211
178	0x3f67bb28	0.9051995
179	0xbf845587	-1.0338601
180	0x3ecd885e	0.40143102
181	0x3f3cf0e1	0.7380505
182	0xbec9298e	-0.39289516
183	0x3e54c5f9	0.20778646
184	0xbe98b3b1	-0.29824594
185	0xbe3f70e5	-0.1869541
186	0x3cf1df60	0.029525459
187	0xbef1e02c	-0.47241342
188	0x3e46723e	0.19379517
189	0x3f16e98f	0.5895013
190	0x3f14f36b	0.58183926
191	0xbf127020	-0.5720234
192	0x3ea8986a	0.32928783
193	0xbf0017ae	-0.5003613
194	0xbf38b243	-0.72147006
195	0x3e7deaa9	0.24796547
196	0xbed3a121	-0.4133387
197	0x3f192283	0.59818286
198	0x3ec91c2c	0.39279306
199	0x3e206bdb	0.15666144
200	0xbe18ef93	-0.1493514
201	0xbd4789b3	-0.048715305
202	0xbe9e313f	-0.30896947
203	0xbf46a377	-0.7759318
204	0xbe02b081	-0.12762643
205	0xbef456e5	-0.47722545
206	0x3d4e4ff0	0.050369203
207	0xbe8b7fd1	-0.27245954
208	0xbd57d6fb	-0.052695256
209	0x3f3a870a	0.72862303
210	0x3ebb677b	0.36602387
211	0x3e864c94	0.262303
212	0xbf9a48b4	-1.2053437
213	0xbe9a424f	-0.30128714
214	0x3f280f4f	0.6564836
215	0x3f6490cc	0.8928344
216	0xbf7da1fc	-0.99075294
217	0xbead751a	-0.33878404
218	0x3c3acd98	0.011401556
219	0x3ebab492	0.3646589
220	0x3f300a3b	0.6876561
221	0xbfa561f4	-1.2920518
222	0x3eceb531	0.40372613
223	0x3f0c9469	0.54913956
224	0xbed84f05	-0.42247787
225	0xbdb1b130	-0.08676374
226	0x3e26923e	0.16266724
227	0xbe46c432	-0.1941078
228	0xbdeb4f1f	-0.114897005
229	0x3ec41f79	0.38305262
230	0xbefc9a22	-0.49336344
231	0x3e9c45db	0.30522045
232	0xbd3d959f	-0.046285268
233	0xbf8396d8	-1.0280409
234	0xbf8f13b0	-1.1177883
235	0x3f0aa38f	0.5415582
236	0x3f46d781	0.7767258
237	0xbf8129c1	-1.0090867
238	0xbeeae557	-0.45878097
239	0x3e57c631	0.21071698
240	0x3e9e4fdc	0.30920303
241	0xbeffc5dd	-0.49955645
242	0xbea3b2cf	-0.31972358
243	0xbe60ae3e	-0.21941468
244	0x3eeab37e	0.45840067
245	0xbdf23275	-0.1182603
246	0x3f89e310	1.0772419
247	0xbf854b86	-1.0413673
248	0x3ec1b6b0	0.37834692
249	0xbf3c3d44	-0.73530984
250	0x3d85a5c8	0.06525761
251	0x3eddc9c4	0.43317997
252	0xbf3624be	-0.71149814
253	0x3f2f331d	0.6843737
254	0xbdf24a4f	-0.118305795
255	0xbf99b7ef	-1.2009257
