knet2_76D_tanh_[60_50_40_20_1]_0.0777/layer3_W.npy (npy, 3328 bytes, 1 tensors)

array f4 [40, 20]
0	0x3ea3f682	0.32024008
1	0xbe74dd09	-0.23912443
2	0x3f82cdf2	1.02191
3	0x3fa18b8b	1.262071
4	0xbd53f359	-0.051745746
5	0x3d8087ed	0.06275926
6	0x3e488b1d	0.19584318
7	0x3f244dba	0.641811
8	0x3edc2147	0.4299414
9	0xbf71105a	-0.94165576
10	0xbe91391b	-0.2836388
11	0x3f5eef5a	0.8708397
12	0xbf0cccd6	-0.55000055
13	0xbd71b33c	-0.05900882
14	0xbf08dc39	-0.53461033
15	0xbf03f5cc	-0.5154693
16	0x3e96e533	0.2947174
17	0x3f90ad78	1.1302938
18	0xbec93310	-0.3929677
19	0xbed46b03	-0.41487893
20	0xbebd50e5	-0.3697578
21	0xbe853300	-0.26015472
22	0xbf192b5e	-0.598318
23	0xbf29fee3	-0.6640455
24	0x3f4068b8	0.7515979
25	0xbdf7c16c	-0.12097439
26	0x3f9396c8	1.153039
27	0x3e0f2029	0.13977112
28	0x3ebd0da1	0.3692446
29	0xbe2985af	-0.16554902
30	0x3e82f615	0.2557837
31	0x3ee32d31	0.44370416
32	0xbf345808	-0.70446825
33	0xbf2befca	-0.67162764
34	0xbed02812	-0.4065557
35	0x3f1d37f1	0.61413485
36	0x3e8268a6	0.25470465
37	0x3c03ba57	0.008040032
38	0xbf2ddecb	-0.6791808
39	0x3e8eabb2	0.27865368
40	0xbe7b1a84	-0.24521834
41	0xbe944edf	-0.28966424
42	0x3f0223ed	0.5083607
43	0x3f1746b6	0.5909227
44	0x3ec97a64	0.3935119
45	0x3f07e226	0.5307945
46	0x3ebb13cc	0.3653854
47	0x3ebe917b	0.37220368
48	0xbe0cd942	-0.13754752
49	0x3edead83	0.43491754
50	0x3d6b9162	0.057511695
51	0xbf3aaef6	-0.7292322
52	0x3e13a91d	0.1441998
53	0x3f9b1794	1.211657
54	0x3f132f96	0.57494485
55	0x3faffee6	1.3749664
56	0xbf6742de	-0.90336406
57	0xbfb31573	-1.3990921
58	0x3efbc166	0.4917099
59	0x3efb42bd	0.49074355
60	0x3d9788ae	0.073991165
61	0x3e0c04c0	0.13673687
62	0xbf202b8d	-0.62566453
63	0xbec39403	-0.3819886
64	0xbe87d494	-0.26529372
65	0xbfaabf33	-1.3339599
66	0x3f5b2a7e	0.8561171
67	0x3f27841d	0.65435964
68	0x3d980d1d	0.07424376
69	0x3b80b9a2	0.003928379
70	0x3f731fde	0.949705
71	0x3e905c95	0.28195634
72	0x3eeb7418	0.4598701
73	0xbdb189ec	-0.08668885
74	0xbf3f2267	-0.7466187
75	0x3cec786a	0.028866012
76	0x3e9243aa	0.2856725
77	0xbfa63ac0	-1.2986679
78	0xbf485b3e	-0.78264225
79	0x3f287eed	0.65818673
80	0xbe36e08c	-0.17859095
81	0xbe01d9d8	-0.12680757
82	0x3f3d5d9b	0.73970956
83	0x3fcff6c6	1.6247184
84	0xbb909ce6	-0.004413235
85	0x3f81ddab	1.0145773
86	0x3de2e4d2	0.110788
87	0xbf5756ea	-0.84116995
88	0xbd80b4f5	-0.06284515
89	0x3f84fafd	1.0389096
90	0x3e66b902	0.22531512
91	0x3db3e009	0.08782966
92	0x3eb9b5c5	0.36271492
93	0xbef682f0	-0.48146772
94	0x3e1d73da	0.15376225
95	0xbf891f50	-1.0712681
96	0xbeacc1d6	-0.33741635
97	0x3ef56612	0.47929436
98	0xbe4eb6de	-0.20186946
99	0x3e5963b4	0.2122944
100	0x3f204e4c	0.6261947
101	0x3ea3c172	0.31983525
102	0x3bdfa29e	0.0068248054
103	0xbf020678	-0.5079112
104	0x3e0b0d35	0.13579257
105	0xbde207ac	-0.110366195
106	0xbe8906be	-0.26762956
107	0xbd6ac2f0	-0.057314813
108	0xbe90cd0c	-0.28281438
109	0x3e61d39b	0.22053377
110	0xbf26bcd5	-0.65131885
111	0x3e0caa53	0.13736849
112	0x3ec5a876	0.38605088
113	0x3e9999a5	0.30000034
114	0xbe71fcc3	-0.23631577
115	0x3f5923e5	0.84820396
116	0x3e0bd67b	0.13656037
117	0x3f8466eb	1.0343908
118	0xbe3e427e	-0.18580052
119	0x3eb0a5d9	0.34501532
120	0xbe8f4bc2	-0.27987486
121	0x3f1109b4	0.5665543
122	0xbd97d142	-0.0741296
123	0x3e8d44ea	0.2759164
124	0x3e99cadf	0.3003759
125	0xbd0181da	-0.031617977
126	0x3f850cbf	1.0394515
127	0xbe810bef	-0.25204417
128	0x3f1d0863	0.6134092
129	0xbe87ed33	-0.26548156
130	0xbe79bd5a	-0.24388638
131	0xbf62a3b7	-0.8853106
132	0xbd2a9288	-0.04164365
133	0xbe4d7ccf	-0.20067142
134	0x3ebfeeac	0.3748678
135	0x3f8f0eaa	1.117635
136	0xbf0ab3a5	-0.54180366
137	0xbf0f4b89	-0.5597463
138	0x3f3c3a0a	0.7352606
139	0x3e783188	0.24237645
140	0x3f3481ca	0.7051054
141	0x3de2e2e9	0.11078436
142	0x3efd7066	0.49499816
143	0x3e68befb	0.22729103
144	0xbeef4c4e	-0.46737903
145	0xbf36c82d	-0.71399194
146	0x3cbade1c	0.022810988
147	0xbeb1654e	-0.34647602
148	0x3f087b1b	0.53312844
149	0xbf689e74	-0.9086678
150	0xbe547789	-0.20748724
151	0xbec91d1d	-0.39280024
152	0xbf46db3f	-0.77678293
153	0x3ed897df	0.42303368
154	0x3fb6b7c5	1.4274832
155	0xbec1d7a9	-0.37859848
156	0x3f03a999	0.5143066
157	0x3f882991	1.0637685
158	0xbe2c3cd4	-0.16820079
159	0x3e33d511	0.17561747
160	0xbe1453b4	-0.14485055
161	0x3d0213cf	0.031757172
162	0xbe9fb4bd	-0.3119258
163	0x3ddecc94	0.10878864
164	0x3f1a84fe	0.6035918
165	0x3f6a85e4	0.9161055
166	0xbd47fd87	-0.048825767
167	0x3f2b0210	0.6680002
168	0x3f1e65af	0.61873907
169	0xbd04f02a	-0.0324556
170	0x3e864472	0.26224095
171	0xbf1fcb4d	-0.6241959
172	0xbf84c357	-1.0372113
173	0xbc0b04ff	-0.008485078
174	0x3f521b06	0.82072484
175	0x3fb8e518	1.4444914
176	0x3f32e660	0.69882774
177	0xbefff580	-0.4999199
178	0x3f806b43	1.0032734
179	0xbe2d011f	-0.16894959
180	0x3f540a77	0.8282847
181	0x3e4531ff	0.19257353
182	0xbe5646fc	-0.20925516
183	0xbf4c496a	-0.7979952
184	0x3efcab98	0.49349666
185	0x3f242d39	0.64131504
186	0x3f548bda	0.83025897
187	0xbf333001	-0.69995123
188	0xbf0a274a	-0.539662
189	0xbd0ebc23	-0.03484739
190	0xbed29ce1	-0.41135314
191	0x3ec0c69c	0.37651527
192	0xbea35fe1	-0.31909087
193	0xbe842dc6	-0.25816172
194	0xbe55969b	-0.20858233
195	0xbf3d3900	-0.739151
196	0x3f283943	0.65712374
197	0x3f6d33ff	0.92657465
198	0xbf55cfe5	-0.83520347
199	0x3c11cb69	0.008898594
200	0xbefeb325	-0.4974605
201	0x3d43b865	0.047783274
202	0xbee19103	-0.44055948
203	0xbe90ef18	-0.28307414
204	0x3f1cca11	0.6124583
205	0x3f3d5c5e	0.73969066
206	0xbf1e775e	-0.6190089
207	0xbe0634e3	-0.13106112
208	0x3eb89612	0.36051995
209	0x3ea7c587	0.3276789
210	0xbd7d15ee	-0.061788492
211	0xbecbd697	-0.39812157
212	0xbef8c99d	-0.4859132
213	0xbe333bd5	-0.17503293
214	0xbf19c8c2	-0.6007196
215	0x3e7324be	0.23744485
216	0x3e84a066	0.25903624
217	0x3ed97801	0.42474368
218	0x3e8fd22e	0.28090042
219	0x3da893f4	0.08231345
220	0x3e0a2edf	0.13494442
221	0xbe1d10e2	-0.15338472
222	0xbf13f982	-0.57802594
223	0x3e4c222f	0.19934915
224	0x3ec0af81	0.376339
225	0xbe6b1b99	-0.22959746
226	0xbea6f672	-0.32609898
227	0x3e213f12	0.15746716
228	0xbe46e765	-0.19424208
229	0x3e2a0c08	0.16606152
230	0x3e238793	0.15969686
231	0xbea4659a	-0.32108766
232	0xbe9d7b15	-0.30757967
233	0x3f14aef5	0.58079463
234	0xbf11ed33	-0.5700256
235	0xbfa1060f	-1.2579974
236	0xbe947d33	-0.2900177
237	0xbef681e2	-0.48145968
238	0xbf256eec	-0.6462238
239	0x3d1f0b7e	0.03882932
240	0x3e21b08d	0.15790005
241	0x3eaa195b	0.3322247
242	0xbef8e460	-0.48611736
243	0xbe7b240f	-0.24525474
244	0x3ef2d3f3	0.4742733
245	0x3ddcbdaf	0.10778367
246	0x3f75799d	0.9588869
247	0x3efcaab4	0.49348986
248	0xbe404035	-0.18774493
249	0xbf54bd1c	-0.8310106
250	0x3f0870d4	0.5329716
251	0x3e3a2e56	0.18181738
252	0xbbec8f9c	-0.007219268
253	0x3fa010d9	1.2505141
254	0xbeb42bfb	-0.35189804
255	0x3f852f12	1.040499
